examples/data/sine_model.tflite (tflite, 3120 bytes, 5 tensors)

StatefulPartitionedCall/sequential_1/dense_2/StatefulPartitionedCall/MatMul/ReadVariableOp/transpose f4 [16, 1]
00000000: 28f8 c4bd 59a1 293e 9eba f5bd 9081 5cbd
00000010: a952 04bf 70c5 b7bd 672f 113e 5896 d33e
00000020: e31f 9bbe 0593 f7be 2756 723e e078 d5bd
00000030: f29c eebe 1daf f0be 44b9 27be 12ac 11bf
-0.096176445 0.16565455 -0.11998485 -0.053834498 -0.5168863 -0.08973205 0.14178239 0.4132564
-0.30297765 -0.48354355 0.23665677 -0.10423446 -0.46604115 -0.470086 -0.16379267 -0.56903183

StatefulPartitionedCall/sequential_1/dense_2/StatefulPartitionedCall/MatMul_bias f4 [16]
00000000: 0000 0000 e7f1 f2be 9a65 3d3f 0000 0000
00000010: 0000 0000 0000 0000 d4df 9fbe 566f 1ebe
00000020: 0000 0000 0000 0000 dbb1 c23e 0000 0000
00000030: 0000 0000 0000 0000 0000 0000 0000 0000
0.0 -0.47450182 0.73983157 0.0 0.0 0.0 -0.31225455 -0.15472159
0.0 0.0 0.38026318 0.0 0.0 0.0 0.0 0.0

StatefulPartitionedCall/sequential_1/dense_3/StatefulPartitionedCall/MatMul/ReadVariableOp/transpose f4 [16, 16]
00000000: 8ed3 023e 57d7 13bf 9dc6 423f 2425 adbe
00000010: d501 b73e 0ddd aa3e ce34 f0be e5b3 babe
00000020: a783 cd3e ba85 7e3e 0e95 d43e 8830 35bd
00000030: f978 d7be 618c ae3e a4cc c93d 4d79 dd3e
00000040: 1306 b33e 95a5 a1be 81cd 503e 05ff 64be
00000050: 365e 5dbe 387e 563d 3ca5 9ebd ec6c 07bf
00000060: 98be 03bd 6989 b03e a397 f7bc 6379 c1be
00000070: d877 79bd 4ff1 893e 4e6b b5be 8cbd 903d
00000080: dbb2 cb3e 0d45 69be 0809 21be cf4c cd3e
00000090: 85e5 b03e b47b ffbd 2828 41be 308e f0bc
000000a0: 1e94 5e3e ada8 803e 89ce 79be e862 a4be
000000b0: ab72 ba3e 021d 86be 9e1a 9cbe 8be5 3ebe
000000c0: e83f 6e3d 97f7 fcbd 4f98 893f aa92 023e
000000d0: eea4 22be 78c3 3ebe a6b6 5fbe 5d88 183e
000000e0: d2f2 63be 8d97 d13e ca98 4c3e a055 3e3d
000000f0: e00f dabe 941a c43d f93c b83e 8077 643c
00000100: c49d a73d eb6a 9dbc d87f 2f3f 36fe 3f3e
00000110: 2227 81be 69c7 d43e 0027 553c 7430 14bf
00000120: a2d6 3d3e 799f 9a3e 41a0 dfbe 61b0 a2be
00000130: af99 92be a02b febd 9dba 843e 2cf8 05be
00000140: c1ed 8d3e 178b b0be 6d31 dc3e 1a58 463e
00000150: 484e 51bd 30c4 80bc bedd 263c 47ef 6a3e
00000160: d0c3 acbd 38f6 bebd 5737 b03e f07b d6bc
00000170: a0be 023c 90cc 6abd 1e90 423e d2ca 593e
00000180: 1e22 793e 343a 8fbe c675 a03e 2031 55bd
00000190: 00ae 56bc 5825 bcbe 44d8 8fbf 44a5 f6be
000001a0: 0c4d f43d 204a 45bc 4e4b 073f e023 e4bc
000001b0: 9119 db3e 35d5 bb3e dc95 1bbe 3e87 463e
000001c0: f2fa 693e 5ad1 203f 5407 9ebf c062 573d
000001d0: 445c 32be ada6 d13e 7ffa dfbd 6eb8 bd3e
000001e0: 7029 74be 45fc 69be 7b51 04be 5302 d93e
000001f0: a521 b63e 3c23 febd 8a04 37be f16c d73e
00000200: aa1e 5e3e cf80 81bd 3c8d dd3e eca0 b0bd
00000210: 9853 40bd c2df 57be 5fb1 63bb 4470 d93e
00000220: ab43 b2be ecfc 87be 46d6 893e 0672 153e
00000230: 86f3 b7be fbb5 9a3e 0d48 70be f4cf d0bd
00000240: 22f9 97be 99be 2c3f c852 75bf 596e 9bbe
00000250: 3056 863d 9ef1 30be dece 0c3f 6177 123e
00000260: 3275 0e3e d95d d03e 80c9 a53d 6886 25be
00000270: 9fed d13e d131 41be bf1f dc3e bc38 ff3d
00000280: 945e 1abe 10b7 b8be 9ef6 483f 32bf 753e
00000290: f417 e93d 5408 cebe c34e cebe c2aa b43d
000002a0: 8a2d 553e a951 c43e 01e5 ae3e 4f45 873e
000002b0: 8b48 b0be 3211 533e 93ef b03e 0813 6abe
000002c0: 40a9 2abd ccbe 903d 117d 963d 20e3 e13c
000002d0: 3b48 a13e d476 5bbe ea61 54be ee7a 26be
000002e0: 2799 b3be fadb 0c3e 154e 80bd f51b 843e
000002f0: 4a67 8abe 80ac bdbe eea5 d3be 4a22 a1be
00000300: 3720 c93e 81dc 4dbf b2dd 4e3e 4185 ba3e
00000310: aff6 823e f3b3 873e a660 60bf 543d 4cbe
00000320: 5a92 693e d01b 7dbd 117f b73e c81a e6bd
00000330: 9bf6 bc3e 50f5 4cbe d4ca 45be 5880 6abd
00000340: aa84 a1be 2688 1e3e b486 2b3f 7fe5 cabe
00000350: 7863 e6bd 9ef7 003e f5a5 923e 4938 04bf
00000360: 609d acbc 90dd b7bc 2f2c 60bf 34af c4bd
00000370: 0a24 113e ab81 c1be 2cfb b2be 59d7 bb3e
00000380: 0273 173e 306d b8be 68ad 103f 1724 dabe
00000390: 808d 473c 6cd3 de3d dba4 bf3e 591e 35bf
000003a0: 2a95 ddbe 08b9 013d b4eb c5be a1fe db3e
000003b0: 34dc c83d 3aed 1d3e 0000 1cb9 eacf 563e
000003c0: 483a 193d 254a a83e ac21 60bf 4ff5 a23e
000003d0: 74c0 02be a640 b7be 9bd0 043f 27da 943e
000003e0: 5e11 723e 51cf 903e 211e a03d dc42 b9bd
000003f0: 6e18 4bbe 4c3a b1be d6e1 3b3e 0238 cfbe
0.12776014 -0.5775046 0.7608431 -0.338174 0.35743585 0.33371773 -0.46915287 -0.36465374
0.40139505 0.248557 0.4151997 -0.044235736 -0.42084482 0.34091476 0.09853485 0.43256608
0.34965572 -0.31571642 0.20390894 -0.22362907 -0.2161797 0.052366465 -0.0774636 -0.52900577
-0.032164186 0.34479836 -0.030223673 -0.37787923 -0.060905308 0.26941916 -0.3543343 0.07067403
0.39784893 -0.22780247 -0.15726101 0.40097663 0.3455011 -0.124747664 -0.18862975 -0.029364675
0.2173619 0.2512869 -0.24395193 -0.3210671 0.3641561 -0.26194006 -0.30489057 -0.18642251
0.058166414 -0.123519115 1.0749606 0.1275126 -0.15883228 -0.18629253 -0.21847019 0.14895768
-0.22260597 0.40935937 0.1998016 0.046468377 -0.42590237 0.09575382 0.35984018 0.013944507
0.08184388 -0.019216022 0.6855445 0.18749318 -0.25225168 0.41558388 0.013009787 -0.57886434
0.18538907 0.30199793 -0.43676952 -0.3177519 -0.28632876 -0.124106646 0.25923625 -0.13082951
0.27720454 -0.34481117 0.4300646 0.19369546 -0.051100045 -0.01571855 0.010184703 0.2294284
-0.08435786 -0.09324306 0.3441722 -0.026182145 0.007980019 -0.057323992 0.19000289 0.21268776
0.24329421 -0.27974093 0.31339854 -0.052048802 -0.013103008 -0.3674724 -1.1237874 -0.48172963
0.11928758 -0.012041599 0.5284928 -0.027849138 0.42792943 0.36686102 -0.15193886 0.19387528
0.22849634 0.62819445 -1.2345986 0.05258441 -0.17418009 0.40947476 -0.1093645 0.3705477
-0.23843932 -0.2285014 -0.12921707 0.42384586 0.35572544 -0.12409064 -0.17872825 0.42075303
0.21691385 -0.063233964 0.43271816 -0.086244434 -0.04695472 -0.2108145 -0.0034743173 0.42468464
-0.34817252 -0.26560152 0.2692129 0.14594278 -0.3592798 0.30216965 -0.23464985 -0.10195914
-0.2968226 0.6747833 -0.9582944 -0.30357626 0.06559408 -0.1727967 0.55003154 0.14303352
0.13911894 0.406966 0.08095074 -0.16164553 0.41001603 -0.1886666 0.4299297 0.12461993
-0.15075141 -0.36077166 0.7850131 0.23998716 0.11381522 -0.4024073 -0.40294465 0.08821632
0.20818153 0.38343552 0.3415909 0.26420066 -0.34430346 0.20612028 0.3455778 -0.22858822
-0.041665316 0.070676416 0.07348073 0.027574122 0.3150042 -0.21432048 -0.20740476 -0.16257831
-0.35077783 0.1375579 -0.06264893 0.2580258 -0.27031928 -0.3704567 -0.41337532 -0.31471473
0.3928239 -0.8041459 0.20201758 0.3642979 0.2557883 0.26504478 -0.87647474 -0.1994527
0.22809735 -0.061794102 0.3583913 -0.11235577 0.36906895 -0.20015454 -0.19315654 -0.057251304
-0.31546527 0.15481624 0.67002416 -0.39628217 -0.11249441 0.12594458 0.2864224 -0.51648384
-0.021071136 -0.022444516 -0.8756742 -0.0960373 0.14173904 -0.3779424 -0.34957254 0.36687735
0.14789966 -0.36020803 0.56514597 -0.4260566 0.012179732 0.10880169 0.37430462 -0.7074943
-0.43277866 0.0316706 -0.3865639 0.42967704 0.098076254 0.15422526 -0.0001487732 0.2097775
0.037409097 0.32869068 -0.8755138 0.3182778 -0.12768728 -0.3579151 0.51880807 0.29072687
0.23639438 0.2828317 0.07818247 -0.090459555 -0.19833538 -0.3461479 0.18347868 -0.40472418

StatefulPartitionedCall/sequential_1/dense_3/StatefulPartitionedCall/MatMul_bias f4 [16]
00000000: 65ec e13e 24cf 893e 0000 0000 6d07 693e
00000010: 5ec8 8c3e 99a9 4c3e 68ff a43e 2c3f d2be
00000020: 0d58 613e d6b1 d9be 67c0 783e db20 03bd
00000030: 72ff da3e 9833 323e 4e63 7b3e 3214 b6be
0.44125667 0.26915848 0.0 0.22756739 0.27496618 0.19986571 0.3222611 -0.4106382
0.22006245 -0.4251849 0.24292146 -0.032013755 0.42773014 0.17402494 0.245496 -0.35562283

StatefulPartitionedCall/sequential_1/dense_4/StatefulPartitionedCall/MatMul/ReadVariableOp/transpose f4 [1, 16]
00000000: 8294 9f3f c457 36bf 46d8 36be 66a4 f6be
00000010: b3fb 1ebf 4bfc 29be 789c a73f 2124 7b3f
00000020: fddb a7be ea5f 073f 1a6b 01bf 4a11 e83e
00000030: 46e5 783f 9460 7abf b8b7 5bbf eba4 5b3f
1.2467196 -0.7122767 -0.1785594 -0.481723 -0.6210281 -0.16600148 1.3094625 0.98102003
-0.32785025 0.5288073 -0.5055405 0.4532569 0.97224844 -0.97803617 -0.8582721 0.8579852
